[33mWARN: gym.spaces.Box autodetected dtype as <type 'numpy.float32'>. Please provide explicit dtype.[0m
A2C __init__: lr:0.0005, criticLr:0.0001, n:50
_________________________________________________________________
Layer (type)                 Output Shape              Param #   
=================================================================
dense_1 (Dense)              (None, 16)                144       
_________________________________________________________________
dense_2 (Dense)              (None, 16)                272       
_________________________________________________________________
dense_3 (Dense)              (None, 16)                272       
_________________________________________________________________
dense_4 (Dense)              (None, 4)                 68        
=================================================================
Total params: 756
Trainable params: 756
Non-trainable params: 0
_________________________________________________________________
_________________________________________________________________
Layer (type)                 Output Shape              Param #   
=================================================================
dense_1 (Dense)              (None, 32)                288       
_________________________________________________________________
leaky_re_lu_1 (LeakyReLU)    (None, 32)                0         
_________________________________________________________________
dense_2 (Dense)              (None, 32)                1056      
_________________________________________________________________
leaky_re_lu_2 (LeakyReLU)    (None, 32)                0         
_________________________________________________________________
dense_3 (Dense)              (None, 1)                 33        
=================================================================
Total params: 1,377
Trainable params: 1,377
Non-trainable params: 0
_________________________________________________________________
saved ./store/q3_n50init/0model_weights.ckpt
saved ./store/q3_n50init/0critic_weights.ckpt
test-0: meanRews:-250.57897093064875, stdRews:120.1363043650314
ep:0, len:89, cRew:-504.7160843862239
…
